…
  bias: 'none'            # if the bias parameters should be trained ['none', 'lora_only', 'all']
  task_type: 'CAUSAL_LM'  # task

fine_tune_args:
  per_device_eval_batch_size: 32
  gradient_accumulation_steps: 2
  warmup_steps: 100
  num_train_epochs: 4
  learning_rate: 0.0003
  optim: 'adamw_torch'
  save_strategy: "steps"
  save_steps: 200
  auto_find_batch_size: yes
  use_mps_device: no
  logging_strategy: 'steps'
  logging_steps: 10
  save_total_limit: 4
  report_to: wandb

data:
  subset: no   # Used for debug. If no, the following will be ignored
  subset_size: 30



# GPTNeoForCausalLM(
#   (transformer): GPTNeoModel(
#     (wte): Embedding(50257, 768)
#     (wpe): Embedding(2048, 768)
#     (drop): Dropout(p=0.0, inplace=False)
#     (h): ModuleList(
#       (0-11): 12 x GPTNeoBlock(
#         (ln_1): LayerNorm((768,), eps=1e-05, elementwise_affine=True)
#         (attn): GPTNeoAttention(
#           (attention): GPTNeoSelfAttention(
#             (attn_dropout): Dropout(p=0.0, inplace=False)
#             (resid_dropout): Dropout(p=0.0, inplace=False)
#             (k_proj): Linear(in_features=768, out_features=768, bias=False)
#             (v_proj): Linear(in_features=768, out_features=768, bias=False)
#             (q_proj): Linear(in_features=768, out_features=768, bias=False)
#             (out_proj): Linear(in_features=768, out_features=768, bias=True)
#           )
#         )
#         (ln_2): LayerNorm((768,), eps=1e-05, elementwise_affine=True)
#         (mlp): GPTNeoMLP(
#           (c_fc): Linear(in_features=768, out_features=3072, bias=True)
#           (c_proj): Linear(in_features=3072, out_features=768, bias=True)
#           (act): NewGELUActivation()
#           (dropout): Dropout(p=0.0, inplace=False)
#         )
#       )
#     )
#     (ln_f): LayerNorm((768,), eps=1e-05, elementwise_affine=True)
#   )
#   (lm_head): Linear(in_features=768, out_features=50257, bias=False)
# )